app/src/main/ml/mnistDigit.tflite (tflite, 408544 bytes, 4 tensors)

sequential/dense/BiasAdd/ReadVariableOp/resource f4 [128]
00000000: 7b68 f4bd 8566 f4bc c5e4 adbc 1fa0 73bd
00000010: 87f7 873d 762b 57be 2772 06bd 07a4 f23c
00000020: d27e ad3d 1c2e ef3c 1076 69bc cf64 36be
00000030: ef26 8bbd 220d cc3d a337 e03d c227 123c
00000040: e1ef 2e3d 33fc 263e 8a9b 633c 6225 b33d
00000050: cfeb de3d 4824 df3d 714a 003c 7322 203d
00000060: f16e 97bd 3963 60bd ec20 00be 6847 723d
00000070: e080 5ebd d280 563d d4ae 8f3d 0a5d cd3d
00000080: 5a7a dbbb 4390 82bd f6e4 49bc 581d 35bd
00000090: 1704 d23c e615 20bd 88bb e5bd 9f0d 093e
000000a0: 3754 e3bc 0127 d1bd 2c13 7a3d 8992 753d
000000b0: eee3 9fbb 7bb3 3a3d bd48 a73d 3992 193e
000000c0: e32f d33d dd80 f3bc 732a 1ebe c7fc f2bd
000000d0: ad2f 893d e979 07bd 9b9c b43d 51d4 4f3d
000000e0: 25eb e4bc 007e c2bc 87ad b9bd 7051 f73a
000000f0: d41f 123e 8b37 893d 1f51 31bd 1b09 74bc
00000100: ec38 b3bd 70be da3d 93e2 b8bb 06dd ba3d
00000110: 2e45 823c aa06 0b3e 4d77 1a3e 3d57 0c3e
00000120: 9760 073e 4a3e 9abd a378 263d aa37 abbd
00000130: 5478 62bd 86c3 b93c b79e b43d 4c50 683e
00000140: e5ea 0ebe de0f bfbd 19f8 e8bd f6c4 a4bd
00000150: 5978 ad3d 61b3 75be a3b9 37be 4a2f 383c
00000160: 8399 bc3d 6e95 593e e741 5bbb 8295 ab3d
00000170: bac1 e83d af63 9e3d aa66 3abc 3bf6 d53a
00000180: a14e ad3d b464 abbd 4c31 043e 8583 63bd
00000190: a94a f83c ff9f 8fbd a8ea b13d 9255 e7bb
000001a0: a5ab 163e 39ac 60bb ca5a 4a3e 31c9 0bbe
000001b0: 19ca e03c deda 443e ca2f 173d 89a3 c5bc
000001c0: ede4 083d 18a3 053e 31e4 c43d 7e81 81bd
000001d0: 1536 153d c782 c1bd 279f 843d aa64 efbc
000001e0: b619 943d 8771 923e 15b7 003d 0ca3 35bd
000001f0: d078 68bc 2b92 613e c487 c03c 8038 e9bd
-0.119339906 -0.029834041 -0.02122725 -0.059478875 0.06639009 -0.21012673 -0.032823708 0.02961923
0.08471455 0.029196791 -0.01424934 -0.17811893 -0.06794535 0.099634424 0.10948112 0.008920612
0.042709235 0.16307144 0.013892064 0.087473646 0.10884821 0.10895592 0.007830248 0.039095353
-0.07394207 -0.054782126 -0.12512559 0.05915013 -0.054322124 0.052368946 0.07015768 0.100275114
-0.006697935 -0.06375172 -0.012322655 -0.044217438 0.025636716 -0.039083384 -0.11217409 0.13384102
-0.027750118 -0.102125175 0.06105344 0.0599542 -0.0048794663 0.045581322 0.081681706 0.14997186
0.10311868 -0.029724533 -0.1544588 -0.1186462 0.066985466 -0.033075247 0.088189326 0.05073959
-0.027944157 -0.023741722 -0.09066301 0.0018868875 0.14269954 0.06700047 -0.043290254 -0.014894749
-0.08751091 0.10680854 -0.005642244 0.09124188 0.015902128 0.13576761 0.15084572 0.13705154
0.1322044 -0.07531412 0.040642392 -0.083602265 -0.055290535 0.02267624 0.08819335 0.22686881
-0.13956793 -0.09329198 -0.11375446 -0.0804538 0.0847022 -0.23994209 -0.17941909 0.011241743
0.092089675 0.21248409 -0.003345603 0.08378126 0.113650754 0.07733857 -0.011377016 0.0016323993
0.08462263 -0.08368817 0.1290943 -0.05554535 0.030309038 -0.07012939 0.08687335 -0.0070597613
0.14713915 -0.003428234 0.19761196 -0.13650967 0.027440118 0.19224116 0.03691081 -0.024125831
0.033421446 0.13050497 0.096138366 -0.06323527 0.03642853 -0.09448772 0.064756684 -0.029222805
0.072314665 0.2860224 0.0314246 -0.044344947 -0.01418896 0.22028415 0.023502238 -0.1138773

sequential/dense_1/BiasAdd/ReadVariableOp/resource f4 [10]
00000000: 6fb2 09be b1bc b4bc 2d4f 333c 8e69 d7bd
00000010: 31bd 8d3d a926 733d f6f8 c6bd 9808 d4bd
00000020: 6af4 1f3e af25 403d
-0.13446973 -0.022062631 0.01094417 -0.1051818 0.06920851 0.05936304 -0.09715454 -0.10353202
0.1562058 0.046910938

sequential/dense/MatMul f4 [128, 784]
00000000: 7af8 39bd e08f d63b 0a94 8abd 8028 e4bb
00000010: 69a2 903d d546 65bd b4e9 97bc 160a dcbc
00000020: e6dd 81bd 2818 b33c 3ccb 7cbd 3e1a 563d
00000030: 0f18 bbbc cd9d 45bd f04f e0bb 5feb 22bd
00000040: 35d6 23bd 1ed8 b2bc 3e02 793d f83c 9ebd
00000050: 40f4 ad3a 18d2 7f3c 3c79 60bd 64e6 fabc
00000060: 0220 633d 1ae9 0dbd 69e6 8c3d 2074 89bb
00000070: d8e1 263d 5bb2 953d 6a0c 74bd 5428 89bd
00000080: 0ddd a73d 176d 843d 0d85 6d3d 1b7c 713b
00000090: a8da 323c 2bd6 5d3d 9a56 203e 5dec 0a3e
000000a0: 43fa 113e c9b6 883e f7a1 a93d 484a 1a3b
000000b0: 47b2 b93d 8094 733d 4af5 d93d feb2 0c3e
000000c0: d873 ae3d a0e2 003e ddeb f9bb 11cb c4bc
000000d0: a8b5 663c 80d5 36ba d0b9 113d 3eff 773d
000000e0: f367 873d 0014 393b 62fe c03d 4502 8fbc
000000f0: 1c70 ee3d f801 133d 882f 4b3d b3ef 3c3e
00000100: 9da5 1d3e dee9 013e c676 9b3e 1982 8c3e
00000110: 1ac7 c03d 742f ab3c 9706 303d 9a52 4dbd
00000120: ea68 f73c 9247 4d3d bb04 d33d 1d3e 213d
00000130: 9c88 363b 00ed 303e 8ff4 833e 3a0b 983d
00000140: f148 9dbd 04b2 cc3a fc0c 0c3d 7e7b acbc
00000150: da0d 88bd a00f 18bc 5764 0bbd 4bb4 dfbc
00000160: a398 093d caa2 2a3e 25ca e83d 725a c63d
00000170: 402d 873e 686f b83d ea02 653e 1845 563e
00000180: e467 6d3e d2f2 e73d 822e ff3d 9f73 553d
00000190: b650 983d fc2a 9a3d 8937 593e 6718 8a3e
000001a0: c1a2 023e 20e0 873d 4553 ae3d 6e82 ed3d
000001b0: 4049 1f3e ca3c aabc 6a10 58bd 1006 383c
000001c0: c0a1 dc3b 119f 583d 23f3 e03c c8a1 5abd
000001d0: e22a cc3d 2d3a d43d aa81 f3bd 345d 96ba
000001e0: e4ff 3f3e 7059 fa3d 2a3a 4d3e 6b36 203e
000001f0: 895f e73d 62df dbbc aa73 d73c 49ac 263e
00000200: bf31 0e3e 615d fc3d 3f6a 943d b119 223e
00000210: 25b1 8fbc b155 2fbc d1c8 97bc 20c4 79bd
00000220: 7e2d d9bd 6e7d 51bd 0f5f 473e 2b9e a93d
00000230: 680d 463c 8894 073d 0704 ab3b 8290 013e
00000240: 404d 883d a872 00be 4785 41be dea4 9abc
00000250: 626f 03bd 147d 1ebe a0c1 62bd 8835 fb3d
00000260: 8291 05be a775 713c a1d7 f83c 3a90 e93b
00000270: 383e 543d dcbe 383e 3b55 3c3d c123 c03d
00000280: bfc5 ea3d 17a7 233e 48ae 1bbd 6a14 4ebd
00000290: 2056 f03c 4c9d 1c3e 94cf 6d3e cccb 993d
000002a0: 8a15 333d 4d0d 4e3d c023 073d 0170 b2bb
000002b0: 138d 57bc e4a2 2abd bd2c 16be e936 c0bb
000002c0: 4c51 83bd ef3b 47bd 346a d6bd 6bb9 33bd
000002d0: ff17 3fbd edda fc3c 4b73 ae3c 6734 a33d
000002e0: 632f 0c3e 185c f73d e0f6 1c3e 2d49 3d3d
000002f0: 563d f13d 3293 aa3d e3cc 003e 07a3 403d
00000300: 3eb0 0f3d f902 033e 5a3d a43c 0377 213e
00000310: 00c8 c0b9 b220 4b3e ae6a d4bd f17f 0f3d
00000320: c7b7 c43d 9227 a8bd 6e7e 39be 07b7 73bd
00000330: 13e8 99bd 7473 9b3d a8ad 913c b84c 93bc
00000340: 8d19 e2bc dffb 9dbd 4b91 d33d ac30 f43c
00000350: 1223 093d 061e e13d 60ca 903d 9a72 d23d
00000360: f7d3 c1bc 90da aa3c 43e0 a83d f0b6 103e
00000370: 1fa8 e43d fd3f 0fbd 0e9f 083c 0d15 013e
00000380: 7547 8dbd 6a8b 983d 8245 8abd c1b1 55bd
00000390: b93c b13d 0a28 16bd 6e3a c4bd 6bce 763c
000003a0: 1a57 d43d 1c3b bd3c 5f81 4a3d 11d8 743d
000003b0: 35ab 003d e5b3 3abc 727a e33c 9c0e a7bd
000003c0: 781f e03d 8f86 85bd 2bd7 00bb a021 7f3d
000003d0: 6814 eeba 7764 883d 0590 f83d 690b bc3d
000003e0: f9f7 353c 04e5 03bc 3956 923d e48d 573d
000003f0: 5d94 813d a34b 4ebc b693 de3a fa43 a4bd
-0.04540298 0.006547913 -0.067665175 -0.006962836 0.07062227 -0.055975754 -0.018544056 -0.026860278
-0.06341152 0.021862105 -0.061717257 0.05227112 -0.02283862 -0.048246194 -0.006845467 -0.03977525
-0.039999206 -0.021831568 0.060793154 -0.077264726 0.0013271645 0.015614055 -0.054803118 -0.030627437
0.055450447 -0.03464613 0.06879885 -0.0041947514 0.040742725 0.07309409 -0.05958215 -0.06697145
0.08196459 0.0646612 0.057988215 0.0036847654 0.0109163895 0.054159325 0.15658036 0.13566728
0.14255624 0.26701954 0.082828455 0.002354281 0.09067207 0.059467793 0.10642488 0.13740155
0.08518189 0.1258645 -0.007626994 -0.02402261 0.014081396 -0.0006974563 0.035577595 0.060546152
0.066116236 0.002824068 0.0942352 -0.017457137 0.11642477 0.03589055 0.049605876 0.18450813
0.15395208 0.1268687 0.30364054 0.27443007 0.094129756 0.02089665 0.042975035 -0.050127603
0.030201394 0.050117083 0.10303637 0.039365876 0.0027852422 0.17277908 0.2577252 0.07424016
-0.07679928 0.0015617018 0.03419207 -0.02105498 -0.06643267 -0.009281069 -0.03403124 -0.02730765
0.03359283 0.16663662 0.11366681 0.0968522 0.2640171 0.09005624 0.22364393 0.20924795
0.23184162 0.11325611 0.124600425 0.052112218 0.074372694 0.0752773 0.21212591 0.26971743
0.12757398 0.06634545 0.08511976 0.11597143 0.15555286 -0.02078094 -0.05275003 0.011231914
0.0067331493 0.052886073 0.027459687 -0.053376943 0.09969117 0.10362659 -0.11889966 -0.0011471868
0.18749958 0.1222409 0.20041719 0.15645759 0.11297519 -0.026839916 0.02630027 0.16276659
0.13886164 0.12322498 0.07246827 0.15830113 -0.017540524 -0.010701583 -0.018528374 -0.060978055
-0.1060438 -0.05114501 0.19469856 0.08282121 0.012088157 0.033100635 0.005218986 0.12652782
0.06655359 -0.12543738 -0.18898498 -0.018877443 -0.032088645 -0.15477401 -0.055360436 0.1226607
-0.13043788 0.014737523 0.030376257 0.007127789 0.05181715 0.18041557 0.04597972 0.093818195
0.11463498 0.15981708 -0.038008004 -0.050312437 0.029337943 0.15294379 0.23223716 0.07509574
0.043721713 0.050305653 0.03299308 -0.005445481 -0.013156193 -0.04165925 -0.14665504 -0.005865921
-0.064119905 -0.04864114 -0.104694754 -0.043878 -0.046653744 0.03086611 0.02129521 0.07968979
0.13689952 0.12078112 0.1532855 0.046212364 0.11779277 0.083288565 0.12578158 0.047030475
0.035080187 0.12794103 0.020048786 0.15768056 -0.00036770105 0.19836691 -0.1037191 0.035034124
0.09605365 -0.082106724 -0.18114635 -0.05950072 -0.07514968 0.0759038 0.017783001 -0.017980918
-0.027600074 -0.07714056 0.10330447 0.029808365 0.03348071 0.10992055 0.0706985 0.10275765
-0.023660643 0.020856172 0.082458995 0.14132285 0.11164879 -0.034973133 0.008338703 0.12605686
-0.06898395 0.07448466 -0.06751539 -0.052171472 0.0865416 -0.036659278 -0.09581457 0.015063862
0.10368176 0.023099475 0.049439784 0.05977637 0.031413276 -0.011395429 0.027768347 -0.081570834
0.10943502 -0.06519806 -0.00196595 0.062287927 -0.001816404 0.06659787 0.121368445 0.09181864
0.011106485 -0.008050207 0.07145352 0.05262555 0.06327126 -0.012591275 0.0016981277 -0.08020778

sequential/dense_1/MatMul f4 [10, 128]
00000000: 1352 713d 0a38 2f3d beb3 c73d faed 883e
00000010: e97c 35bd 0ede ad3e 13e9 6a3e 75aa fdbe
00000020: ede7 a03d 9c1c 353e 81a5 06bf 01bd 7f3e
00000030: 4877 183e 17fa 65be 2ad6 c8bd 710c 453e
00000040: bcdc 323e 3548 e53b 665f ba3d d76b 68be
00000050: da2c 473e b8a1 1f3c 2703 303e e981 8cbe
00000060: 246d 0fbf 3e41 a23d ba39 433e 5f38 c7be
00000070: 342c 7cbe da20 5c3e 752e 02bd 4a8c 57be
00000080: 16e2 6e3e ec60 913e 81aa a2bd 8079 8fbe
00000090: a660 563d 4c94 0dbe 4f87 0f3e 5c1f 19bb
000000a0: 96fc fd3c 19d0 8b3e cf42 33bd 81dc d7be
000000b0: 7dbb f1bd 5934 cb3d 6a5e d5be f360 893e
000000c0: dec6 d1bd 0cc5 663d c40d 953d 8c13 c3be
000000d0: abfb 623e 676b fb3d 4cb8 fabc b502 d1be
000000e0: 3d4b 243d 5bfb 99be 4c7c 08bf 0b31 a53e
000000f0: 0e6d 9d3e d6f7 ecbe 1161 58be acdd 2e3e
00000100: 8e5c 3f3e 1478 b7be 660f 253e 5907 0fbf
00000110: 8d0b cdbe b1bc 37bf 8690 433e 0589 063d
00000120: b60e cbbe 69bc acbe 46b2 08be 6d8d 883b
00000130: 0ce5 e7be 473b a8bd dc1b 4ebf df66 16bd
00000140: a311 d8bd 24e2 8bbe 9618 313e d446 19be
00000150: b772 1abf 666e 203e 916c d23d 2544 343e
00000160: 3227 5b3e 183a 19bb 2069 36be 6362 da3d
00000170: c129 06bf 04ef e7be 3ed9 2b3e 5b3b aabe
00000180: 7840 3dbd 6168 5f3d 0954 e8bd 822a 8abe
00000190: 2534 74be 3ad7 3b3e a844 3cbf 3992 aa3e
000001a0: d7a2 c4be 7ac5 213c cc59 30bf 3b73 27be
000001b0: bc4c ffbd 0d00 83bc 2571 1ebe f283 b03e
000001c0: 6b02 9f3e 753d e43d 2af1 32bd 06d6 303e
000001d0: 1adb ddbe aabf 59be daed 0abe 70f5 de3d
000001e0: 8f6f 953c 25e7 f93d afed 803e 366a cebe
000001f0: 7bb3 62be 2aa2 0fbd 45b5 b63d 7e0a 8c3e
00000200: 5b03 c9bd 8c17 8ebe bb13 08be ed1b d33d
00000210: ea48 1e3e 2396 80be 249d f4bd 8872 d2be
00000220: e62a 2e3e 6b0a 43be df34 c3be bd67 f43d
00000230: 24ef d5bc 1751 273e a130 37bf e2cb 403e
00000240: 969f 353d 84b8 abbc 4491 20bf 842f 283e
00000250: f37b a33c 924d 493e d2d3 493e ead9 683e
00000260: 697f cc3d 385e db3d 44a5 cd3d 8f32 6cbe
00000270: 8f2f 3d3e 7865 d93d eb42 853e 40f7 a53e
00000280: 634c 80be a3d8 b53e abdb 03bf a4ab 4f3d
00000290: 808a 4a3e ab13 023f affd 5bbe c2b4 94be
000002a0: 7532 bebd 527c 80be d160 15bf dae4 d43e
000002b0: 5cdf 203e ec35 eebe 1d46 933e 4923 973e
000002c0: 6d8c 943d 4e5b 1b3e d06a edbe 0a63 b3be
000002d0: 370b 7ebe 583e fdbe 1342 7e3e 311d ef3e
000002e0: d21f c3be 5e41 833e d981 183e c343 143e
000002f0: 6bb5 963c ea7e 05bf b6d6 ff3d 30b4 34be
00000300: 9568 a0be da86 923d e34e e7be 89f5 2cbf
00000310: 9c41 c33d 9f82 953d 3fa7 8d3d 67de 1e3f
00000320: e4c6 52be dc67 783d 70ab c23c 4ad1 b1be
00000330: 35b9 99bd 8e18 66bd cb17 8d3e 4b56 d93d
00000340: b316 81be 7bc4 693e 6b7a ef3c 6b01 a13d
00000350: b05e 56be 3a11 bbbd 8fb3 0ebf a035 8dbe
00000360: ba66 da3e 2725 0abe 0eb0 00bf 294c 6fbe
00000370: 04a2 6f3e d8ce 2cbc ad1e e4be a420 ff3d
00000380: 3079 66be bba5 d5be 357b 403e e1ec abbe
00000390: b735 c23d 9da0 463d fe2f 8e3e d9ba 5c3d
000003a0: bf03 363d c3ed 25be 0052 ed3d 2f83 323e
000003b0: 7c66 ef3d 6259 2bbf 4b2c 9d3e 7fac f0be
000003c0: 002f d0be 7f10 793e dac6 82be 3b2c dbbe
000003d0: 1e91 cc39 671b 563e 0689 cabe 5278 c5be
000003e0: 39ba 65bf 8d35 223f 4575 603d a8e1 e23d
000003f0: 31e7 823d c006 08bf cd64 743d 39a3 afbe
0.058916163 0.042778052 0.0975108 0.26744062 -0.044308577 0.33958477 0.22940473 -0.4954411
0.07856736 0.17686695 -0.5259629 0.24974443 0.14889252 -0.22458683 -0.098064736 0.19243027
0.17467016 0.006997133 0.09100227 -0.22697388 0.19450703 0.009743147 0.17188703 -0.27442864
-0.5602591 0.079226 0.1906499 -0.38910195 -0.24626237 0.21496907 -0.031782586 -0.2104961
0.23328432 0.28394258 -0.07942677 -0.28022385 0.052338265 -0.13826102 0.1401646 -0.002336464
0.031004231 0.27307203 -0.043764886 -0.4216042 -0.11803339 0.09922094 -0.41673595 0.2683178
-0.10243009 0.056340262 0.07278016 -0.3810085 0.22166316 0.12276345 -0.030605458 -0.40822378
0.040110815 -0.30074582 -0.5331466 0.3226398 0.30747265 -0.46282834 -0.21130778 0.17076749
0.1868765 -0.358338 0.16119155 -0.55870587 -0.40047875 -0.71772295 0.190981 0.032845516
-0.3965966 -0.33737496 -0.13349256 0.00416725 -0.45291936 -0.08214431 -0.8051126 -0.0367192
-0.10550239 -0.2732097 0.17294535 -0.14968425 -0.6033129 0.15667114 0.10274614 0.1760412
0.2140167 -0.0023380574 -0.1781354 0.10663297 -0.5240746 -0.45299542 0.1678209 -0.3324841
-0.04620406 0.054542903 -0.113441534 -0.26985556 -0.23848017 0.18343821 -0.7354226 0.33314684
-0.38405487 0.009873742 -0.6888702 -0.1635255 -0.12465808 -0.015991235 -0.15472849 0.34475666
0.31056532 0.111445345 -0.043687023 0.17269143 -0.43331224 -0.2126452 -0.13567296 0.10886657
0.018241672 0.122022904 0.25181338 -0.40315408 -0.22138779 -0.03506676 0.08921293 0.27351755
-0.09815093 -0.2775234 -0.13288777 0.10308061 0.15457502 -0.25114545 -0.11944035 -0.41103005
0.17008552 -0.19046943 -0.38126275 0.11933849 -0.026115008 0.16339527 -0.71558577 0.18827775
0.044341646 -0.020962007 -0.6272166 0.16424376 0.019956565 0.19658497 0.1970971 0.22739378
0.09985239 0.1071133 0.100412875 -0.23066162 0.18475173 0.10615057 0.26027617 0.324152
-0.25058278 0.35516843 -0.5150706 0.0507008 0.19779396 0.5081126 -0.21483491 -0.29044157
-0.09286968 -0.2509485 -0.58350855 0.4158085 0.15710205 -0.46525514 0.2876443 0.29519108
0.072533466 0.15171549 -0.46370554 -0.35036498 -0.24808966 -0.49461627 0.24829893 0.4670196
-0.38110214 0.2563581 0.14893283 0.14478974 0.018397054 -0.5214678 0.12492125 -0.17646861
-0.3132979 0.07154627 -0.45177373 -0.67562157 0.09533998 0.073003046 0.06916665 0.6205811
-0.20583683 0.060645923 0.023763388 -0.34729987 -0.075060286 -0.05617576 0.27557215 0.10612162
-0.2521263 0.22828858 0.029233178 0.078615986 -0.20934558 -0.09134145 -0.55742735 -0.27579975
0.426565 -0.13490735 -0.5026864 -0.23368897 0.23401648 -0.010547362 -0.44554654 0.124573976
-0.22507167 -0.41728005 0.18797 -0.33579162 0.094829015 0.048493017 0.2777099 0.05388913
0.044437166 -0.1620398 0.11587906 0.17432855 0.11689469 -0.6693326 0.30697855 -0.47006604
-0.40660858 0.24322699 -0.25542337 -0.42807183 0.00039018033 0.2090889 -0.39557666 -0.3856836
-0.8973728 0.6336296 0.054799337 0.11078197 0.063917525 -0.531353 0.059666444 -0.34304217
